hw1/models/model.pth (torch, 28450 bytes, 7 tensors)

net.0.weight f4 [64, 93]
-0.07615124 -0.32189807 -0.051287685 -0.11514583 -0.08232447 -0.05775308 -0.13294628 0.10636433
-0.23228373 0.17495376 -0.13776098 0.05974892 -0.12695777 -0.21450344 0.06984916 -0.0871205
0.04036669 -0.008579147 0.11208745 0.18399246 -0.14166282 0.14371955 0.08371211 -0.0680626
0.13022001 0.080627546 -0.39220443 0.025831461 0.1509594 -0.042304207 0.013625903 0.14777297
-0.21334025 -0.072318844 -0.2491261 0.1975437 0.13446766 0.043858565 0.17990796 0.037567608
0.0008723777 0.046201285 -0.0078377845 -0.07265843 -0.0031609314 -0.012076429 -0.012733085 0.03989036
-0.03470712 0.024563614 -0.027768005 -0.012068906 -0.023251988 -0.014419884 -0.0035429301 -0.09605668
-0.025505632 -0.0040841117 0.029396316 -0.042587385 -0.018036194 -0.10061801 0.04704566 0.003558946
0.08491615 -0.053262323 0.109738365 -0.03566787 0.11939347 -0.056943294 -0.016437182 -0.07415092
0.010995237 0.04873914 -0.04877646 -0.014535858 0.1486278 -0.023784041 0.048696693 0.010611767
0.0150509905 -0.015384692 -0.087115504 -0.040488042 0.014769573 0.012880998 -0.042350926 0.093240514
0.08904963 -0.0023348485 0.00011930565 0.07204787 0.18596834 0.11390942 -0.18353942 -0.4889896
0.020929912 -0.4976508 0.1797055 -0.028009336 -0.41273332 -0.2117134 0.015127966 0.14389613
-0.072715476 -0.017627252 -0.03287613 0.10981255 -0.25064433 -0.15702908 -0.19003813 0.07191229
0.08247537 0.14914688 0.0030283984 -0.033182953 0.24868232 -0.08547429 0.29094604 -0.13969259
0.07733801 -0.06663671 0.043131046 -0.12821388 0.07663537 -0.3885996 -0.17055336 0.22119778
-0.13110504 0.06384079 -0.20041558 -0.011551118 0.047326516 -0.026504856 -0.011670191 0.04022893
0.008880583 -0.024510114 0.00860046 0.03857759 0.056847572 -0.04155549 0.030071307 -0.020311499
0.03994882 0.0030502703 0.01547071 0.021794798 0.014186773 -0.008593145 -0.011256468 0.04227055
-0.03740619 -0.041126717 0.0548571 0.019612532 0.056321923 -0.006283088 -0.059044577 0.02612122
-0.07714246 0.019977754 -0.05941912 -0.030764764 0.053032514 0.017785275 -0.04392336 0.028523099
0.109381765 -0.055268325 0.0022986033 0.05346868 0.028580805 0.03760009 0.027441636 0.03965552
-0.0458327 0.044731222 0.10407578 0.0024102728 0.06132945 -0.0007928153 -0.0149169555 -0.019203696
0.090676755 -0.09171897 0.08973515 0.002048429 -0.13888343 -0.3775266 -0.42996293 0.13964273
-0.039581094 -0.063435845 -0.09124266 0.07878736 0.11495343 -0.107709296 -0.18550865 -0.07598816
0.097247705 0.2703305 -0.168718 -0.04539734 -0.18841407 0.10959067 0.021636393 0.054022092
-0.0070193256 0.04934613 -0.1129166 -0.08130086 -0.098082595 0.08440044 -0.027989283 -0.0154307345
-0.18762307 0.099381104 -0.27139616 0.013973115 0.026384344 -0.12165455 0.07496946 -0.10459367
0.048122134 0.11391234 0.0794338 -0.029825477 -0.01799105 -0.07024235 -0.014628274 0.052271523
0.034513284 -0.018857155 0.03290688 0.03445955 0.009725371 0.021380784 -0.0026079 -0.088720664
0.04537067 0.023620166 -0.05078145 -0.06164955 -0.035833992 -0.0021813554 0.012193522 -0.014610445
0.0071674758 0.018708803 0.058663014 -0.00022708562 -0.021052865 -0.022056844 -0.026488146 0.029130582
00000000: 2ef5 9bbd d3cf a4be 0913 52bd 94d1 ebbd
00000010: bb99 a8bd 7e8e 6cbd 1223 08be 8bd5 d93d
00000020: c9db 6dbe 1427 333e 3711 0dbe 49bb 743d
00000030: 3801 02be caa6 5bbe 140d 8f3d 3c6c b2bd
00000040: 8b57 253d 8d8f 0cbc 1b8e e53d 8568 3c3e
00000050: 0f10 11be 382b 133e 4171 ab3d 6864 8bbd
00000060: 6558 053e 0e20 a53d 05cf c8be 809c d33c
00000070: 1a95 1a3e 2d47 2dbd 2e3f 5f3c cc51 173e
00000080: de75 5abe e71b 94bd ea1a 7fbe e548 4a3e
00000090: e4b1 093e 0aa5 333d cb39 383e 7ee0 193d
000000a0: 47b0 643a 8f3d 3d3d 0d6a 00bc f1cd 94bd
000000b0: a127 4fbb 37dc 45bc 6e9e 50bc 1364 233d
000000c0: 0e29 0ebd a239 c93c ba79 e3bc a9bc 45bc
000000d0: f47a bebc 6141 6cbc 8130 68bb 5db9 c4bd
000000e0: 30f1 d0bc 03d4 85bb 8bd0 f03c 1c70 2ebd
000000f0: a4c0 93bc d110 cebd f3b2 403d 353d 693b
00000100: 85e8 ad3d 9829 5abd 82be e03d 7918 12bd
00000110: 9084 f43d 5f3d 69bd 45a7 86bc 70dc 97bd
00000120: 5e25 343c b1a2 473d d3c9 47bd cf27 6ebc
00000130: e331 183e c0d6 c2bc 2f76 473d fadc 2d3c
00000140: 6e98 763c 1310 7cbc 9d69 b2bd cad6 25bd
00000150: 14fc 713c d20a 533c 2a78 2dbd e2f4 be3d
00000160: a75f b63d 4204 19bb bc33 fa38 d58d 933d
00000170: 7c6e 3e3e 5849 e93d c2f1 3bbe d85c fabe
00000180: 3575 ab3c 16cc febe b804 383e d673 e5bc
00000190: c851 d3be 66cb 58be 4adb 773c 8259 133e
000001a0: daeb 94bd 0767 90bc 1fa9 06bd 67e5 e03d
000001b0: 7454 80be 3bcc 20be 5b99 42be c046 933d
000001c0: d9e8 a83d f6b9 183e 1878 463b d9ea 07bd
000001d0: 94a6 7e3e 250d afbd e1f6 943e 930b 0fbe
000001e0: 6463 9e3d d478 88bd 2eaa 303d 804a 03be
000001f0: 01f3 9c3d 87f6 c6be 8aa5 2ebe ac81 623e
00000200: 6640 06be f6be 823d be39 4dbe e740 3dbc
00000210: 73d9 413d b620 d9bc 5434 3fbc 17c7 243d
00000220: dd7f 113c 6fc9 c8bc f2e8 0c3c 8903 1e3d
00000230: 00d9 683d 1736 2abd 1a58 f63c 4d64 a6bc
00000240: 60a1 233d 0be7 473b dc78 7d3c 018b b23c
00000250: a46f 683c 43ca 0cbc 0c6d 38bc e223 2d3d
00000260: 3c37 19bd 7d74 28bd d7b1 603d 76aa a03c
00000270: d1b1 663d 5de2 cdbb bad8 71bd 2bfc d53c
00000280: defc 9dbd 63a8 a33c 7761 73bd 6306 fcbc
00000290: 9f38 593d 6db2 913c fbe8 33bd 46a9 e93c
000002a0: 8c03 e03d 0a61 62bd 2aa4 163b f901 5b3d
000002b0: 4b22 ea3c 8d02 1a3d 48cd e03c d46d 223d
000002c0: 12bb 3bbd 1638 373d af25 d53d abf5 1d3b
000002d0: 9734 7b3d efd4 4fba 3f66 74bc 1251 9dbc
000002e0: bcb4 b93d 28d7 bbbd 10c7 b73d f03e 063b
000002f0: 7537 0ebe 2b4b c1be 1a24 dcbe 81fe 0e3e
00000300: c91f 22bd a7ea 81bd 6fdd babd 445b a13d
00000310: b46c eb3d b196 dcbd fbf5 3dbe ae9f 9bbd
00000320: ce29 c73d c268 8a3e 69c4 2cbe 90f2 39bd
00000330: 9eef 40be 1371 e03d ce3e b13c 4546 5d3d
00000340: 5f02 e6bb 2b1f 4a3d d240 e7bd 1181 a6bd
00000350: 87df c8bd 23da ac3d c849 e5bc 31d1 7cbc
00000360: 4320 40be 5288 cb3d 70f4 8abe 7eef 643c
00000370: fb23 d83c 0526 f9bd 9789 993d 3535 d6bd
00000380: b71b 453d df4a e93d 30ae a23d 8f54 f4bc
00000390: f761 93bc 39db 8fbd 6eab 6fbc aa1a 563d
000003a0: cd5d 0d3d 527a 9abc 5dc9 063d 7525 0d3d
000003b0: 2a57 1f3c c126 af3c 4de9 2abb 2eb3 b5bd
000003c0: 98d6 393d 147f c13c 3600 50bd 3d84 7cbd
000003d0: aac6 12bd 12f5 0ebb 57c7 473c a660 6fbc
000003e0: 25dd ea3b 3443 993c a148 703d d51d 6eb9
000003f0: 0f77 acbc 8eb0 b4bc abfd d8bc 42a3 ee3c

net.0.bias f4 [64]
-0.00029009057 -0.00022711145 -0.0003020186 -0.00026463866 6.908042e-05 -0.00017176814 -0.00024245871 -0.00019495275
-4.4863966e-05 1.0094876e-06 -0.00016071749 -1.0841098e-06 -3.2612836e-05 -0.00018941279 -2.6003316e-05 8.1682774e-05
-0.0002380754 -0.00012902345 5.0873896e-05 -0.0002540791 -0.00026912265 -4.1790474e-05 0.00012832941 0.00024318081
-2.0368845e-05 0.0005100479 -0.00038475904 0.00011133134 6.636901e-05 -0.0003580026 -9.635739e-05 0.00019131467
4.0110233e-05 0.00033765793 -0.00029646335 -0.00016713062 0.0004082127 -0.0002169507 -0.00017167213 -0.00013143965
-1.7451433e-05 -0.00013487533 -0.0001658574 -0.00023952744 6.7239205e-05 -5.7620626e-05 -0.0004433657 -0.0002884379
-0.0002758563 9.391376e-06 -0.0002622794 -1.1252505e-05 -0.00021350561 8.9370325e-05 -7.2648654e-05 -0.0008531233
-0.00013869013 0.00018153763 0.00020792085 -0.00026696228 -1.033456e-05 -0.00023690239 0.0004892371 -0.0006497311
00000000: 4c17 98b9 c424 6eb9 4058 9eb9 33bf 8ab9
00000010: 45df 9038 a91c 34b9 843c 7eb9 3b6c 4cb9
00000020: 512c 3cb8 bb7d 8735 4686 28b9 bb81 91b5
00000030: c4c9 08b8 1c9d 46b9 b221 dab7 1b4d ab38
00000040: e1a3 79b9 784a 07b9 6e61 5538 eb35 85b9
00000050: 0819 8db9 2e48 2fb8 2a90 0639 5afe 7e39
00000060: c3dd aab7 bcb4 053a 7cb9 c9b9 8f7a e938
00000070: 972f 8b38 4cb2 bbb9 7b13 cab8 a49b 4839
00000080: 093c 2838 ae07 b139 a36e 9bb9 c93f 2fb9
00000090: 6205 d639 437d 63b9 e302 34b9 10d3 09b9
000000a0: ab64 92b7 526d 0db9 02ea 2db9 a829 7bb9
000000b0: c602 8d38 adad 71b8 8973 e8b9 7b39 97b9
000000c0: cea0 90b9 a78f 1d37 8c82 89b9 24c9 3cb7
000000d0: 7ae0 5fb9 546c bb38 f35a 98b8 23a4 5fba
000000e0: 596d 11b9 235b 3e39 5405 5a39 12f7 8bb9
000000f0: 9962 2db7 0069 78b9 2540 003a b752 2aba

net.1.weight f4 [64]
1.3601199 1.2920101 1.3933283 1.3969502 1.3077931 1.2964215 1.4693261 1.3266674
1.2549185 1.3819106 1.0962747 1.3744658 1.3500521 1.28352 1.2985226 1.2829975
1.1732465 1.3291143 1.2703197 1.3564957 1.3366954 1.4198886 1.3749621 1.3107669
1.3895813 1.3708533 1.330963 1.3223653 1.2672757 1.3905734 1.4246737 1.3488362
1.3263918 1.3704137 1.3861998 1.2408942 1.4248222 1.3924603 1.3306587 1.3248016
1.2713188 1.1442314 1.3620558 1.3392999 1.3130515 1.325182 1.3728154 1.3450181
1.3145499 1.3290582 1.3441615 1.3364794 1.210748 1.377213 1.3182201 1.4301972
1.2388783 1.3751887 1.3389146 1.4785544 1.2964995 1.384007 1.4289275 1.494753
00000000: 6918 ae3f 9660 a53f 9558 b23f 44cf b23f
00000010: c465 a73f 24f1 a53f e112 bc3f 3dd0 a93f
00000020: 2ba1 a03f 72e2 b03f bb52 8c3f 7fee af3f
00000030: 82ce ac3f 624a a43f fd35 a63f 4339 a43f
00000040: f12c 963f 6b20 aa3f d699 a23f a7a1 ad3f
00000050: d618 ab3f e9be b53f c2fe af3f 36c7 a73f
00000060: cddd b13f 1f78 af3f ff5c aa3f 4443 a93f
00000070: 1736 a23f 4ffe b13f b55b b63f aaa6 ac3f
00000080: 35c7 a93f b769 af3f ff6e b13f 9fd5 9e3f
00000090: 9360 b63f 243c b23f 0653 aa3f 1993 a93f
000000a0: 93ba a23f 2d76 923f d857 ae3f 2e6e ab3f
000000b0: 1212 a83f 909f a93f 6ab8 af3f 8e29 ac3f
000000c0: 2c43 a83f 941e aa3f 7c0d ac3f c211 ab3f
000000d0: caf9 9a3f 8448 b03f 70bb a83f b410 b73f
000000e0: 9093 9e3f 2f06 b03f 8e61 ab3f 4541 bd3f
000000f0: b2f3 a53f 2427 b13f 19e7 b63f 1154 bf3f

net.1.bias f4 [64]
0.40854633 0.4427214 0.4967152 0.48828235 0.34465533 0.4100873 0.460177 0.35400984
0.16563359 0.51508033 0.0009066575 0.39127836 0.45341098 0.3969998 0.14274351 0.40743116
0.12748353 0.45392323 0.28121915 0.37477297 0.4630883 0.47601986 0.5040728 0.38526118
0.5153663 0.43051547 0.44480857 0.39442918 0.30791366 0.41659072 0.47398603 0.4288513
0.46251112 0.4224648 0.47610694 0.14798836 0.3595694 0.45894572 0.40715387 0.43503892
0.25404242 0.05929604 0.2148147 0.4131273 0.3508005 0.46140334 0.49028885 0.4572568
0.4048749 0.40990174 0.44081718 0.4071861 0.13758257 0.47033653 0.41506812 0.45746323
0.18419573 0.4192613 0.4214278 0.39301816 0.25891837 0.45283046 0.154145 0.4279382
00000000: fc2c d13e 61ac e23e 7451 fe3e 2500 fa3e
00000010: aa76 b03e f6f6 d13e 529c eb3e c740 b53e
00000020: da9b 293e 4edc 033f c1ac 6d3a a355 c83e
00000030: 7c25 e83e 8f43 cb3e 5b2b 123e d19a d03e
00000040: 0b8b 023e a068 e83e f5fb 8f3e 3ee2 bf3e
00000050: e919 ed3e e0b8 f33e ea0a 013f f440 c53e
00000060: 0cef 033f 866c dc3e f3bd e33e 9ff2 c93e
00000070: dca6 9d3e 614b d53e 4cae f23e 6692 db3e
00000080: 42ce ec3e 4e4d d83e 4ac4 f33e 438a 173e
00000090: 7b19 b83e effa ea3e 7976 d03e 6cbd de3e
000000a0: d911 823e 68e0 723d 62f8 5b3e 6c85 d33e
000000b0: 209c b33e 0f3d ec3e 2407 fb3e 901d ea3e
000000c0: c34b cf3e a4de d13e cab2 e13e b27a d03e
000000d0: 72e2 0c3e f3cf f03e cf83 d43e 9f38 ea3e
000000e0: ce9d 3c3e 6ba9 d63e 62c5 d73e ad39 c93e
000000f0: f390 843e 65d9 e73e 30d8 1d3e b71a db3e

net.1.running_mean f4 [64]
-0.017555831 -0.048809793 -0.03651764 -0.012900878 0.025360819 -0.027977841 -0.0039392123 -0.014705969
0.025267914 -0.023841966 0.00774491 -0.0214766 -0.04789562 -0.035616115 -0.025289964 -0.034533273
0.00016211462 -0.04863499 -0.008345767 0.013661394 -0.045862243 -0.0007422215 -0.06773032 -0.039932266
-0.029889088 -0.055114117 -0.03808874 0.0027870622 -0.022689795 0.020691572 -0.00666024 -0.03363478
-0.0649322 -0.026067454 -0.050522562 -0.018725153 -0.007608211 -0.00043116708 -0.02545478 -0.039046112
-0.0139134005 0.013096315 -0.0049775247 -0.024853472 -0.011705713 -0.062122945 -0.052399706 -0.04013497
-0.023586653 -0.048930295 -0.04714096 -0.028719347 -0.00293049 -0.013181563 -0.004463805 -0.016557205
-0.0054194187 -0.04473122 -0.031393353 0.00042441103 -0.029536322 -0.025073888 -0.00040577858 -0.023617525
00000000: 3fd1 8fbc c7ec 47bd 8593 15bd 345e 53bc
00000010: 7ec1 cf3c c931 e5bc 8214 81bb 4ef1 70bc
00000020: a8fe ce3c 3a50 c3bc 04c9 fd3b b2ef afbc
00000030: 332e 44bd 34e2 11bd e62c cfbc c372 0dbd
00000040: 50fd 2939 7c35 47bd afbc 08bc 0ad4 5f3c
00000050: 0cda 3bbd a491 42ba 32b6 8abd 0490 23bd
00000060: f6d9 f4bc 57bf 61bd f002 1cbd 25a7 363b
00000070: f3df b9bc 5f81 a93c 243e dabb a0c4 09bd
00000080: 2cfb 84bd 6a8b d5bc bff0 4ebd 7e65 99bc
00000090: 4d4e f9bb 440e e2b9 8b86 d0bc d1ee 1fbd
000000a0: 08f5 63bc ed91 563c 811a a3bb 8299 cbbc
000000b0: 52c9 3fbc a174 7ebd 13a1 56bd 9164 24bd
000000c0: cc38 c1bc 226b 48bd e116 41bd d644 ebbc
000000d0: 770d 40bb 7bf7 57bc 1c45 92bb faa2 87bc
000000e0: 6195 b1bb 1538 37bd 5196 00bd 7c83 de39
000000f0: 28f6 f1bc c167 cdbc aebe d4b9 8a79 c1bc

net.1.running_var f4 [64]
0.040673964 0.09855678 0.04302974 0.08648424 0.057120547 0.099159345 0.048930995 0.07012073
0.04663389 0.06711892 0.03771332 0.03195461 0.19621587 0.11263361 0.019955985 0.2062635
0.07963113 0.092921205 0.09582177 0.051741157 0.07310049 0.06371607 0.20246853 0.07243419
0.08922428 0.075028524 0.1303513 0.040729877 0.04320057 0.054727133 0.034170654 0.07791819
0.12990218 0.028222527 0.0502798 0.050918605 0.0468793 0.05917214 0.068367004 0.08287517
0.04572936 0.061117638 0.020649374 0.21848314 0.0896485 0.0751162 0.068165764 0.090238035
0.07048874 0.112024374 0.086269 0.036722895 0.055465654 0.12569475 0.060908936 0.04060478
0.06913842 0.16071793 0.039374106 0.027411444 0.0472788 0.026037753 0.02065798 0.034031916
00000000: be99 263d 23d8 c93d f43f 303d a61e b13d
00000010: 3cf7 693d 0e14 cb3d de6b 483d 759b 8f3d
00000020: 2e03 3f3d a575 893d 4879 1a3d d6e2 023d
00000030: d0ec 483e 73ac e63d bc7a a33c bd36 533e
00000040: a515 a33d 794d be3d 343e c43d 89ee 533d
00000050: b6b5 953d 927d 823d e953 4f3e 6058 943d
00000060: 38bb b63d 8ea8 993d d07a 053e 5fd4 263d
00000070: 15f3 303d 8f29 603d 87f6 0b3d 9293 9f3d
00000080: 1405 053e ee32 e73c 31f2 4d3d 0790 503d
00000090: 8204 403d 7c5e 723d 0004 8c3d 75ba a93d
000000a0: b64e 3b3d 7d56 7a3d e028 a93c 0bba 5f3e
000000b0: a299 b73d 86d6 993d 7e9a 8b3d b8ce b83d
000000c0: 675c 903d 096d e53d cdad b03d bf6a 163d
000000d0: f42f 633d 20b6 003e a67b 793d 3351 263d
000000e0: 7298 8d3d 3e93 243e be46 213d f78d e03c
000000f0: 6aa7 413d 204d d53c ed3a a93c 0d65 0b3d

net.3.weight f4 [1, 64]
0.3579425 0.34044597 0.30879363 0.33315504 0.27358052 0.39825028 0.36866733 0.2849842
0.2577308 0.3085061 0.1918546 0.42314422 0.28406128 0.39019117 0.307718 0.39213634
0.22107983 0.33982587 0.26371583 0.3117598 0.3332135 0.35123304 0.32815835 0.30061692
0.31538996 0.40144664 0.40971923 0.40867302 0.27818847 0.3375536 0.30561945 0.3623558
0.2979657 0.33901718 0.32593846 0.26053953 0.3476541 0.3228983 0.38587525 0.37496164
0.25051898 0.21077977 0.2982344 0.3062394 0.270493 0.32806134 0.33975688 0.32228285
0.38970208 0.3802482 0.4118175 0.36531866 0.22983524 0.30691946 0.40214914 0.32118577
0.2556921 0.3111349 0.36152464 0.36933732 0.26872006 0.33039576 0.36361822 0.35048425
00000000: 3d44 b73e ef4e ae3e 331a 9e3e 4c93 aa3e
00000010: bf12 8c3e 76e7 cb3e f7c1 bc3e 73e9 913e
00000020: 4bf5 833e 83f4 9d3e 8875 443e 5ca6 d83e
00000030: 7b70 913e 23c7 c73e 378d 9d3e 18c6 c83e
00000040: c062 623e a8fd ad3e c305 873e fb9e 9f3e
00000050: f69a aa3e d1d4 b33e 5f04 a83e 76ea 993e
00000060: cb7a a13e 6a8a cd3e b8c6 d13e 973d d13e
00000070: b86e 8e3e d3d3 ac3e 277a 9c3e b386 b93e
00000080: f68e 983e a993 ad3e 68e1 a63e 7065 853e
00000090: b8ff b13e ed52 a53e 7191 c53e f9fa bf3e
000000a0: 0644 803e a7d6 573e 2eb2 983e 69cb 9c3e
000000b0: 0f7e 8a3e a8f7 a73e 9df4 ad3e 4202 a53e
000000c0: 0887 c73e e4af c23e bed9 d23e 0c0b bb3e
000000d0: ee59 6b3e 8c24 9d3e 7ee6 cd3e 7672 a43e
000000e0: 13ea 823e 134d 9f3e c219 b93e c819 bd3e
000000f0: ad95 893e a229 a93e 2b2c ba3e ac72 b33e
