hw1/models/model.pth (torch, 28322 bytes, 7 tensors)

net.0.weight f4 [64, 93]
00000000: 56ee bbbd ce9f 27be d75f 33bb 3149 a5bd
00000010: 2cbb 77bd f64f e5bd b96b d2bd 7d04 873d
00000020: 1d17 13be b7ce 303e fad5 59be 22ac 5e3d
00000030: a26b 1cbe 79db 52be 0a73 f73d e7cb febd
00000040: dc96 e83d 7f3a 0c3d 77f7 e13d 04ff 1b3e
00000050: 646f 02be 605a ea3d ba2d e03d 2185 5dbd
00000060: c79f e73d 7150 1a3d 48c7 ccbe a71e 9b3b
00000070: 904c 0c3e 065d 56bd 52a3 84bd b4df f63d
00000080: 29e9 55be c851 7bbd 4ede 6cbe 3f44 3d3e
00000090: 7e4c 043e 7983 00be 2d5b 403e e64f 8b3d
000000a0: 24ad 083c 1b0c 803d 207c 29bc b73a 90bd
000000b0: 166a 4bbc 8d55 3d3c 589a 73bc ba61 4a3d
000000c0: d90a 0cbd 5421 a03c d79e 32bd 336d 4d3c
000000d0: 982a 0dbd 3f4f 09bc 1db5 28bb 25db c7bd
000000e0: ad3b a1bc 24f8 4bbb 67ec a03c 579b 10bd
000000f0: 3d3f 5abc 8520 babd 6637 033d 1ee6 5e3a
00000100: 2545 a33d 75c9 42bd e16b cd3d 4447 f7bc
00000110: 5faf ee3d 12cc 67bd 594e bb3c 461d 84bd
00000120: 75de 863c 6e54 443d 18ee b1bc f2cb c6bb
00000130: 3caf 0a3e 8f2a efbc 7d86 2a3d 6077 023c
00000140: 0fb8 e93c 69f0 45bd b53d afbd 1ca7 36bd
00000150: c336 863c 5f3a b53c 4090 17bd 71a7 753d
00000160: 0693 a83d 7740 2ebd 5467 96bc 4172 803d
00000170: 2343 2f3e 81e3 dd3d 6915 16be 8329 c8be
00000180: 4693 aa3c 9e22 b9be 9c90 203e ec78 2cbe
00000190: c347 c3be 79ac a7be 71df 153c 0213 0c3e
000001a0: 87eb 8bbd 3bde b3bc 7e26 dabc 9019 d03d
000001b0: dab6 aabe 66c0 23be d06d d8bd dbf0 a63c
000001c0: 89ce b43d 78d9 ff3d 91d7 423c bc8f 3ebd
000001d0: 5975 5b3e 38c5 0bbe 0d5c 893e 6c86 a8bd
000001e0: 1d6e c93d 30ef 7ebd 42ce 223d 89db 94be
000001f0: 25f5 893d 8f85 9dbe d912 c139 5745 353e
00000200: 0ccf 07be 5014 9c3d d739 b8be c239 da3c
00000210: e6a5 2e3d 24df bcbc 8d15 d6bb d6e5 113d
00000220: 1390 ce3b 7c4f 28bc ef19 7e3b 4353 f73c
00000230: 228c 653d 7ac1 17bd c122 aa3c fad2 8abc
00000240: 7fec e53c 6aff 6bbb da24 a43c 429a 6aba
00000250: 73bb ba3b 746b 39bc ec37 d6bc 399c 263d
00000260: 9017 0fbd aa4f f4bc 8d6e 7a3d 5a69 ea3c
00000270: c0d0 4f3d e01a 47bc da59 2bbd 9e7f 123d
00000280: e7be a5bd cfc3 8d3c 0470 87bd 4c50 f2bc
00000290: 3156 633d a6e6 7b3c f904 27bd d26a bd3c
000002a0: de90 cf3d 9e60 37bd b4af b23b c6eb 6b3d
000002b0: c45a df3c fd35 493d 1ef2 933c 4959 0d3d
000002c0: 4d86 11bd 16ef 143d 3726 d23d b5bb 793b
000002d0: 5439 833d be2e 12bc 001b 96bc 53d0 d5bc
000002e0: caec a33d b9ce c2bd 0481 dc3d 4c2d 11bc
000002f0: edc5 6fbe 5423 16bd fa85 a3be 1687 733d
00000300: bb40 27be e89c 9abe bd1b 5bbe 2b79 0f3d
00000310: 5656 c33c 4e76 2cbe bea1 1cbe 232d dfbd
00000320: c71c c53d 34fe 833e 0f7a 3dbe 7eac dbbd
00000330: c9d3 d2bd 1d2f c73d 9982 863c 8b2c 173d
00000340: 4c45 f13c 10d7 9b3c 2cc1 d7bd ea15 763d
00000350: 3eaa 9dbd 0888 043e 0542 51bd 96c2 7fbd
00000360: bfc5 8ebe 5e31 a33d 10a0 35be 5a9b 973d
00000370: fb1a 173d cb9d 14be 7b00 013e 4df1 47be
00000380: 884c 4e3d ed97 003e 218e 6f3d 8fed 0cbd
00000390: 2f71 6f3a a6a9 33bd fb7a 8dbb 6444 173d
000003a0: d5f1 063d d17e 69bc 6de9 0bbc ed41 7c3c
000003b0: cb45 e1bb ce4b a2bc bb42 243c 9f2d 65bc
000003c0: ec0b 543d fc83 ccbb 3b2c 1ebc e6e2 13bd
000003d0: b7f0 dcbc 1808 a43c 06fc b13c 1cb8 babb
000003e0: f914 513c 9081 853c 13cd 863d db2e 30bc
000003f0: a0e2 12bd 1cbc 25bd b609 05bd 1357 073d
-0.09176318 -0.16369554 -0.0027370357 -0.08070601 -0.060481235 -0.11196892 -0.10274453 0.06592653
-0.14364286 0.17266355 -0.21273032 0.054363377 -0.15275434 -0.20591535 0.12082489 -0.12441235
0.11356899 0.034235474 0.11033528 0.15234 -0.12737805 0.11443019 0.10946222 -0.05408204
0.11309772 0.03767437 -0.3999579 0.0047338787 0.13701081 -0.052334808 -0.064764634 0.12054387
-0.20889725 -0.06135729 -0.23131678 0.18483065 0.12919804 -0.12550153 0.18784781 0.06802349
0.008342061 0.06252309 -0.010344535 -0.07042449 -0.01241543 0.011556041 -0.014868341 0.049409606
-0.034190033 0.019547142 -0.043608513 0.012538242 -0.03446445 -0.00838071 -0.0025742718 -0.097585954
-0.019681776 -0.0031123245 0.019643975 -0.035304394 -0.013320741 -0.09088234 0.032035254 0.0008502918
0.07972173 -0.047555406 0.10030342 -0.03018535 0.11654543 -0.0565911 0.022864508 -0.06450896
0.016463498 0.04793208 -0.021719977 -0.0060667926 0.13543409 -0.029195098 0.041632164 0.0079630315
0.028530149 -0.048324976 -0.085566916 -0.04459296 0.016383534 0.02212256 -0.037002802 0.059974138
0.082311675 -0.042541947 -0.018359818 0.06271792 0.17115454 0.108344086 -0.14656605 -0.3909417
0.020822179 -0.36159223 0.15680164 -0.16843003 -0.38140687 -0.32748774 0.009147511 0.13679126
-0.06832033 -0.021956554 -0.026629683 0.10161126 -0.3334263 -0.15991363 -0.1056782 0.02037852
0.08828456 0.12492651 0.011892215 -0.046523795 0.21431483 -0.13649452 0.26828042 -0.08228764
0.098354556 -0.062239826 0.039747484 -0.29073742 0.06736211 -0.3076596 0.0003682587 0.17702232
-0.13262576 0.07621062 -0.35981628 0.02663887 0.04263868 -0.02305562 -0.006533331 0.03561958
0.006303796 -0.010272857 0.0038772782 0.03019107 0.056041844 -0.037049748 0.020768525 -0.016946305
0.028066872 -0.0036010393 0.020037103 -0.0008949378 0.005698615 -0.011317123 -0.026149713 0.04067633
-0.03493458 -0.029823143 0.061140586 0.028614689 0.05073619 -0.012152404 -0.041833736 0.035766236
-0.08093052 0.017305283 -0.06613162 -0.029579304 0.05550212 0.015374815 -0.040776227 0.023122225
0.10135053 -0.044769876 0.0054530744 0.057597898 0.02726496 0.049123753 0.018059786 0.034508977
-0.03552847 0.036360823 0.10261195 0.0038106267 0.06407419 -0.008922277 -0.018323421 -0.026100313
0.08004148 -0.095120855 0.10766795 -0.008860897 -0.23415346 -0.036654785 -0.31938154 0.059455
-0.16333286 -0.30197835 -0.213973 0.035027664 0.02384488 -0.16842005 -0.15296075 -0.10897281
0.096246295 0.2577988 -0.18503593 -0.1072626 -0.10294301 0.09725783 0.016419696 0.036907714
0.029451989 0.019023448 -0.105348915 0.060079493 -0.07698487 0.12942517 -0.05108835 -0.06244143
-0.27885243 0.079684004 -0.1773684 0.07402678 0.036890965 -0.14513318 0.1259784 -0.19525643
0.050365955 0.12557955 0.058485154 -0.03440624 0.0009133992 -0.04386296 -0.004317639 0.036930457
0.032945473 -0.014251427 -0.00853954 0.015396577 -0.006874775 -0.019811537 0.010025675 -0.013987928
0.051769182 -0.0062413197 -0.0096541 -0.03610506 -0.02697025 0.02002339 0.02172662 -0.005698217
0.012761348 0.016297132 0.065820836 -0.010753359 -0.035860658 -0.0404626 -0.032479964 0.033042025

net.0.bias f4 [64]
00000000: 76e1 5938 3755 1fba c81e 24b8 26d7 1b38
00000010: 2669 ad39 08b1 97b9 4f8c f039 f447 f639
00000020: f855 0838 6fad 9539 de78 e638 a9dd 09ba
00000030: 9aa5 8bb9 b628 bab9 ae15 89b9 124d 8f39
00000040: dd8b 0bb8 fbde 0639 e11e 78b9 ccc0 223a
00000050: 921b 4dba 848d 82b9 2bfa 1339 6d85 24ba
00000060: 6da3 04b9 70cc f1b9 c467 a637 d29a 5a39
00000070: 4a74 15b9 8477 6f39 4058 0eb7 1e6d 8039
00000080: 8a17 fe38 555b 05ba 78c5 afb9 b958 b5b8
00000090: 2d35 5539 d396 abb9 92ce 4839 f3df 33ba
000000a0: f800 72b8 042d 1a39 192e 6ab9 15da 4b39
000000b0: 998d 7d39 0832 103a 5fa2 4cb7 eaab 0b3a
000000c0: 597f de39 4aba cbb8 0cde 4b3a 065d d839
000000d0: d755 a4b8 d0cc 50b7 7051 8a38 d2cc c7b9
000000e0: c606 f7b8 a8ad 83b9 3d61 833a 8a48 59b9
000000f0: d8e6 c637 9b5d 8f39 231e f239 4910 e8b8
5.194681e-05 -0.00060780667 -3.9129314e-05 3.7155252e-05 0.00033075473 -0.00028932863 0.00045880905 0.00046974386
3.250499e-05 0.00028548713 0.00010989768 -0.0005259165 -0.0002663553 -0.00035507017 -0.0002614683 0.00027332507
-3.327044e-05 0.00012862303 -0.00023662626 0.00062085385 -0.00078242377 -0.0002490097 0.00014112207 -0.00062759855
-0.00012649382 -0.0004611942 1.9837062e-05 0.00020847775 -0.00014253068 0.00022837339 -8.484407e-06 0.0002449536
0.00012116048 -0.0005087157 -0.00033525727 -8.6472784e-05 0.00020333072 -0.00032728034 0.0001915044 -0.0006861679
-5.76982e-05 0.00014703354 -0.00022333152 0.0001944083 0.0002418071 0.00055006193 -1.21971525e-05 0.00053280464
0.0004243802 -9.714493e-05 0.0007776923 0.00041268038 -7.836118e-05 -1.2445453e-05 6.595522e-05 -0.0003810884
-0.000117791395 -0.0002511565 0.0010023486 -0.00020721756 2.3710934e-05 0.00027344827 0.0004618029 -0.000110656554

net.1.weight f4 [64]
00000000: 3dc2 ae3f 585e aa3f 3e06 b33f 7aff b53f
00000010: 3cb6 a73f 131f aa3f 7213 b73f ea36 aa3f
00000020: aeae 9a3f 67b2 b53f b6df 853f 2445 ac3f
00000030: 7036 b03f 2a6a a83f bbf9 9c3f fd28 a93f
00000040: 55b6 913f 7fed ae3f be2e a33f 10f1 ac3f
00000050: 6e4a af3f 87ae b63f 9cbc b43f 2b1c aa3f
00000060: e7d7 b53f d0a4 b03f 343e ae3f caca aa3f
00000070: e099 9f3f 3c80 b13f c46c b63f 1622 ae3f
00000080: 7c7f ae3f 91ea af3f b8ec b33f 8e26 9c3f
00000090: 3313 b33f f38c b23f 0612 ac3f 9b8b ad3f
000000a0: 20c9 a63f 4f28 8b3f f0b1 a73f 1d6e ae3f
000000b0: d3f4 a83f d74c ae3f 90ac b33f c9d0 ae3f
000000c0: 9e2a ab3f 71a4 ac3f 861e af3f 7bd2 ac3f
000000d0: b6a8 9a3f f47b b33f fb8d ab3f 0678 b63f
000000e0: c133 9c3f 28b1 b03f fb0d ac3f 430c b83f
000000f0: 01fe a33f d297 b13f add3 aa3f 7795 ba3f
1.3653027 1.3310041 1.398628 1.421859 1.3102489 1.3290733 1.4302809 1.3298008
1.2084558 1.4195069 1.0458896 1.34586 1.3766613 1.3157399 1.2263712 1.3215634
1.1383768 1.3666228 1.274864 1.3511066 1.3694589 1.4272012 1.4120059 1.3289846
1.4206513 1.3800297 1.3612733 1.3343136 1.2468834 1.3867259 1.4251943 1.3604152
1.3632655 1.3743459 1.4056616 1.2199266 1.3990234 1.3949264 1.3443 1.3558229
1.3030128 1.0871676 1.3101177 1.3627354 1.3199714 1.36172 1.4037037 1.3657466
1.3372381 1.3487684 1.368119 1.3501734 1.2082736 1.4022202 1.3402704 1.4255378
1.2203294 1.3804064 1.3441767 1.4378742 1.2811891 1.3874457 1.3345848 1.4576863

net.1.bias f4 [64]
00000000: 5e9f cf3e 69da d33e 5651 f43e 1007 ee3e
00000010: 051a ab3e c8ba c23e 6b6f e63e 92cb ab3e
00000020: 1a71 383e a1f1 f03e 70c1 f33b 0513 c83e
00000030: 926a d93e 15cb ba3e 3942 283e c20e c23e
00000040: 5716 ea3d 6be2 d63e 33d4 8f3e 9fee bc3e
00000050: c860 de3e b84d eb3e 6b79 ec3e 883b bc3e
00000060: 459c f73e 064c d13e fe02 d03e 8078 bf3e
00000070: a89a 8e3e 87cf d13e 5bea ee3e 2966 d03e
00000080: 4017 d73e 0a50 d13e a0b1 e13e 7142 3c3e
00000090: 0c7c c03e 5a22 e33e 76bc c63e 41b5 cd3e
000000a0: 67fe 7d3e 038b 9d3d f725 843e 3206 cc3e
000000b0: 4d42 b43e 8d7a d93e c8c3 e63e 00f4 e33e
000000c0: 49db c83e 63af c33e b21d d03e 777b ca3e
000000d0: 58bb 263e 76c1 e13e 5f77 c83e d65d ec3e
000000e0: 4d8d 353e d5b0 d03e 9bc7 ce3e 16f8 d23e
000000f0: f2af 8f3e c1cc e23e 0849 5c3e e9db ea3e
0.40551275 0.4137757 0.47718304 0.46489763 0.3341829 0.38033128 0.4500688 0.3355375
0.18011895 0.47059348 0.007438831 0.3907701 0.4246412 0.36483064 0.16431512 0.37901884
0.11430042 0.41969618 0.28091583 0.36900803 0.43433213 0.45957732 0.46186385 0.3676417
0.48361412 0.40878314 0.40627283 0.37396622 0.27852368 0.40978643 0.46663174 0.40702942
0.42009926 0.40881377 0.4408083 0.1838472 0.3759464 0.44362146 0.3881566 0.40177348
0.24804078 0.0769253 0.25810215 0.39848477 0.35206833 0.4247631 0.45071244 0.44522095
0.392298 0.38219747 0.40647656 0.3954732 0.16282403 0.4409291 0.39153573 0.4616534
0.17729683 0.40759912 0.40386662 0.412049 0.28063923 0.4429684 0.21512234 0.45870903

net.1.running_mean f4 [64]
00000000: 201c 96bc 1e8d 50bd f94d 28bd 106c 40b9
00000010: b821 c43c e5c1 72bc 9744 0dbc a8de 6abc
00000020: 10e3 b63c cf4e b7bc 46ae 8c3b 0274 0cbd
00000030: 9e9f 2cbd 57ce ecbc 1928 fabc 81a3 eabc
00000040: a986 063b 9527 1abd 1989 49bc 1e6a b1ba
00000050: b3ca 08bd de31 04bb 2ae6 7cbd ad47 3ebd
00000060: 0bec fbbc b426 4fbd dd82 13bd 399e 3b3a
00000070: 53b8 c9bc 45aa bd3c ade5 b0bb 4397 d5bc
00000080: 3e77 7cbd 4aae d6bc bda1 2abd 5624 acbc
00000090: 32f9 f5bb 4efa 39bc a312 c3bc 8c8f e3bc
000000a0: e601 feba e219 743c 58a7 303b cef2 babc
000000b0: 8661 a3bc c398 77bd ec87 4fbd 7bbe 2ebd
000000c0: 2171 b9bc cbfd 27bd 7688 32bd 8e55 0fbd
000000d0: b9e4 983b dabe 9cbc 71ef c6bb 1893 99bc
000000e0: cbdd 1abc def7 36bd 5066 29bd 28ba acb9
000000f0: d49e 10bd 9931 bbbc 3800 85ba b59f 8bbc
-0.018323958 -0.05091583 -0.041089986 -0.00018350803 0.02394186 -0.014816736 -0.00862231 -0.014335312
0.022325069 -0.022376446 0.004293236 -0.03429032 -0.04214441 -0.028906984 -0.030536698 -0.028642418
0.002052704 -0.037635405 -0.012300753 -0.0013535654 -0.033396434 -0.0020171325 -0.06174294 -0.046455074
-0.030752202 -0.05057402 -0.036013473 0.0007157061 -0.024624025 0.02315248 -0.0053984732 -0.026073104
-0.061637156 -0.026206154 -0.041658152 -0.02101342 -0.007506513 -0.011351181 -0.023812598 -0.02777841
-0.0019379228 0.014898749 0.0026955213 -0.022820856 -0.019943964 -0.06044842 -0.050666735 -0.042662125
-0.022636952 -0.04101352 -0.04358717 -0.0349937 0.0046659377 -0.019133974 -0.006071024 -0.018746898
-0.009452294 -0.04466998 -0.04135734 -0.00032945094 -0.03530772 -0.022850798 -0.001014716 -0.017043928

net.1.running_var f4 [64]
00000000: 311e 463d d0d0 ae3d 1787 d83d 7086 d63d
00000010: ecab 803d 0300 c03d e42c 5c3d b920 c43d
00000020: bd5c 4f3d f427 673d f8ce 023e 80f6 043d
00000030: fda4 283e 8cd4 943d a77d c13c 0d17 293e
00000040: d171 933d 2739 783d 5953 ce3d ffd5 593d
00000050: b860 5f3d 537c 873d 218a 213e 12e1 c13d
00000060: 8a85 bb3d 18f6 8e3d 662f f83d 1278 493d
00000070: da82 c23e 58b6 4d3d 1775 1b3d 4371 b93d
00000080: 3dfa cb3d 9126 c13c 262f 3a3d b447 783d
00000090: ebb9 533d 1195 ca3d e3f8 a33d c8cc 8d3d
000000a0: 55f2 1b3d 3976 803d 5115 963c 8d4b 733e
000000b0: 7ea7 b63d 05a9 6b3d 3886 863d d519 a83d
000000c0: ae96 9b3d cad0 b03d 1e2a 9d3d 24ac 173d
000000d0: a801 273d 7698 fb3d e345 9c3d 11eb 2e3d
000000e0: 5099 913d 0b2c 123e 3c6e 733d 6013 cb3c
000000f0: d53e 593d af52 c53c fc25 b43c 2145 143d
0.048368637 0.085359216 0.10572641 0.10474861 0.062827915 0.09375002 0.05375375 0.09576554
0.05062555 0.056434587 0.12774265 0.032461643 0.16469188 0.072671026 0.023619486 0.165127
0.07199443 0.06060138 0.10074491 0.0531826 0.054535598 0.0661551 0.15775348 0.09466757
0.0915633 0.069805324 0.121184155 0.049186774 0.37990457 0.050222725 0.037953462 0.09054806
0.099598385 0.02357796 0.04545512 0.060615256 0.051690977 0.098917134 0.08006456 0.069238245
0.038072903 0.06272549 0.018320711 0.23759289 0.08918665 0.057534236 0.06568569 0.08208052
0.07597099 0.08633573 0.07674049 0.0370294 0.040773064 0.12284939 0.07630517 0.042704646
0.0710932 0.14274614 0.0594313 0.024789512 0.053038437 0.024087278 0.021990769 0.03619874

net.3.weight f4 [1, 64]
00000000: f290 b73e d4a7 b53e fa96 9b3e fcde ad3e
00000010: 0e68 8a3e 8bae d23e 176c ac3e 799b 8f3e
00000020: 4d7c 5f3e a2a0 a23e 865b 0e3e 6c5c cd3e
00000030: a4db 943e 4235 ce3e fbf1 7d3e 2610 d23e
00000040: f0a9 3d3e 910f b53e 94e3 873e 6b49 9c3e
00000050: 6dab af3e 06ad b23e 571a ad3e 075c 9c3e
00000060: 167c a53e a296 cc3e a2c8 d63e d703 d23e
00000070: 79cd 843e 02b4 a93e 5d2d 9a3e bf04 b93e
00000080: 19a7 9d3e 3ba5 ab3e e74f a73e 9e4a 793e
00000090: 62a6 a83e d147 a33e b8f2 c63e b808 c53e
000000a0: 2e32 853e e97a 213e 26d6 853e 2557 a23e
000000b0: 2c74 8b3e cece ad3e 3bdd b13e cdf8 a83e
000000c0: 353a cd3e f8dd c43e 3ddb d53e ea06 bd3e
000000d0: 528e 653e 95a1 9f3e f8ad d13e f99e a13e
000000e0: bbef 733e 0108 9e3e 94bc b63e 9252 b13e
000000f0: 3e4f 833e 789c a73e 51ed 963e 4dbe a93e
0.35852772 0.35479605 0.30388623 0.33959186 0.27032512 0.4114879 0.33676216 0.28048304
0.2182476 0.31763178 0.13902101 0.40109575 0.29073822 0.40275007 0.2479934 0.41027945
0.18521857 0.3536344 0.26540816 0.30524763 0.34310475 0.3489763 0.33809158 0.3053896
0.32321233 0.39958674 0.41949946 0.41018555 0.25938013 0.33145148 0.30112734 0.36136433
0.30791548 0.33524498 0.32678148 0.2434487 0.3293944 0.3189073 0.38857055 0.38483214
0.26014847 0.15769543 0.26139945 0.3170711 0.2723707 0.33946842 0.34739098 0.3300232
0.4008347 0.384506 0.41768828 0.36919338 0.22417572 0.31177965 0.4095304 0.315666
0.23821919 0.30865481 0.3569075 0.3463331 0.25646394 0.32736564 0.29477933 0.33153
